…
2025-05-27 08:50:10,857   INFO  Database filter by min points traffic_cone: 62964 => 55504
2025-05-27 08:50:10,858   INFO  Loading GT database to shared memory
2025-05-27 08:50:13,551   INFO  GT database has been saved to shared memory
2025-05-27 08:50:13,689   INFO  Loading NuScenes dataset
2025-05-27 08:50:15,625   INFO  Total samples for NuScenes dataset: 28130
2025-05-27 08:50:15,843   INFO  ----------- Model TransFusion created, param count: 13056834 -----------
2025-05-27 08:50:15,843   INFO  DistributedDataParallel(
  (module): TransFusion(
    (vfe): DynamicVoxelVFE(
      (pfn_layers): ModuleList(
        (0): PFNLayerV2(
          (linear): Linear(in_features=11, out_features=32, bias=False)
          (norm): BatchNorm1d(32, eps=0.001, momentum=0.01, affine=True, track_running_stats=True)
          (relu): ReLU()
        )
        (1): PFNLayerV2(
          (linear): Linear(in_features=64, out_features=64, bias=False)
          (norm): BatchNorm1d(64, eps=0.001, momentum=0.01, affine=True, track_running_stats=True)
          (relu): ReLU()
        )
      )
    )
    (backbone_3d): FSHNet_nusc(
      (cpe): SparseSequential(
        (0): SparseSequential(
          (0): SubMConv3d(64, 128, kernel_size=[3, 3, 3], stride=[1, 1, 1], padding=[0, 0, 0], dilation=[1, 1, 1], output_padding=[0, 0, 0], bias=False, algo=ConvAlgo.MaskImplicitGemm)
          (1): BatchNorm1d(128, eps=0.001, momentum=0.01, affine=True, track_running_stats=True)
          (2): ReLU()
        )
        (1): SparseBasicBlock(
          (conv1): SubMConv3d(128, 128, kernel_size=[3, 3, 3], stride=[1, 1, 1], padding=[1, 1, 1], dilation=[1, 1, 1], output_padding=[0, 0, 0], algo=ConvAlgo.MaskImplicitGemm)
          (bn1): BatchNorm1d(128, eps=0.001, momentum=0.01, affine=True, track_running_stats=True)
          (relu): ReLU()
          (conv2): SubMConv3d(128, 128, kernel_size=[3, 3, 3], stride=[1, 1, 1], padding=[1, 1, 1], dilation=[1, 1, 1], output_padding=[0, 0, 0], algo=ConvAlgo.MaskImplicitGemm)
          (bn2): BatchNorm1d(128, eps=0.001, momentum=0.01, affine=True, track_running_stats=True)
        )
        (2): SparseBasicBlock(
          (conv1): SubMConv3d(128, 128, kernel_size=[3, 3, 3], stride=[1, 1, 1], padding=[1, 1, 1], dilation=[1, 1, 1], output_padding=[0, 0, 0], algo=ConvAlgo.MaskImplicitGemm)
          (bn1): BatchNorm1d(128, eps=0.001, momentum=0.01, affine=True, track_running_stats=True)
          (relu): ReLU()
          (conv2): SubMConv3d(128, 128, kernel_size=[3, 3, 3], stride=[1, 1, 1], padding=[1, 1, 1], dilation=[1, 1, 1], output_padding=[0, 0, 0], algo=ConvAlgo.MaskImplicitGemm)
          (bn2): BatchNorm1d(128, eps=0.001, momentum=0.01, affine=True, track_running_stats=True)
        )
        (3): SparseBasicBlock(
          (conv1): SubMConv3d(128, 128, kernel_size=[3, 3, 3], stride=[1, 1, 1], padding=[1, 1, 1], dilation=[1, 1, 1], output_padding=[0, 0, 0], algo=ConvAlgo.MaskImplicitGemm)
          (bn1): BatchNorm1d(128, eps=0.001, momentum=0.01, affine=True, track_running_stats=True)
          (relu): ReLU()
          (conv2): SubMConv3d(128, 128, kernel_size=[3, 3, 3], stride=[1, 1, 1], padding=[1, 1, 1], dilation=[1, 1, 1], output_padding=[0, 0, 0], algo=ConvAlgo.MaskImplicitGemm)
          (bn2): BatchNorm1d(128, eps=0.001, momentum=0.01, affine=True, track_running_stats=True)
        )
        (4): SparseSequential(
          (0): SparseConv3d(128, 128, kernel_size=[3, 1, 1], stride=[2, 1, 1], padding=[0, 0, 0], dilation=[1, 1, 1], output_padding=[0, 0, 0], bias=False, algo=ConvAlgo.MaskImplicitGemm)
          (1): BatchNorm1d(128, eps=0.001, momentum=0.01, affine=True, track_running_stats=True)
          (2): ReLU()
        )
      )
      (stage1): SparseSequential(
        (0): SlotFormer(
          (sla_layers): ModuleList(
            (0): SFLayer(
              (self_norm_layers): ModuleList(
                (0): BatchNorm1d(128, eps=0.001, momentum=0.01, affine=True, track_running_stats=True)
                (1): BatchNorm1d(128, eps=0.001, momentum=0.01, affine=True, track_running_stats=True)
              )
              (self_attn_layers): ModuleList(
                (0): SelfAttnLayer(
                  (qkv): Linear(in_features=128, out_features=384, bias=False)
                  (proj): Linear(in_features=128, out_features=128, bias=True)
                )
                (1): SelfAttnLayer(
                  (qkv): Linear(in_features=128, out_features=384, bias=False)
                  (proj): Linear(in_features=128, out_features=128, bias=True)
                )
              )
              (ffn_layers): ModuleList(
                (0): CWI_FFN_Layer_3D(
                  (bn): BatchNorm1d(128, eps=0.001, momentum=0.01, affine=True, track_running_stats=True)
                  (conv_k): SubMConv3d(32, 32, kernel_size=[3, 3, 3], stride=[1, 1, 1], padding=[1, 1, 1], dilation=[1, 1, 1], output_padding=[0, 0, 0], algo=ConvAlgo.MaskImplicitGemm)
                  (conv_h): SubMConv3d(32, 32, kernel_size=[1, 1, 21], stride=[1, 1, 1], padding=[0, 0, 10], dilation=[1, 1, 1], output_padding=[0, 0, 0], algo=ConvAlgo.MaskImplicitGemm)
                  (conv_w): SubMConv3d(32, 32, kernel_size=[1, 21, 1], stride=[1, 1, 1], padding=[0, 10, 0], dilation=[1, 1, 1], output_padding=[0, 0, 0], algo=ConvAlgo.MaskImplicitGemm)
                  (bn2): BatchNorm1d(128, eps=0.001, momentum=0.01, affine=True, track_running_stats=True)
                  (fc1): Linear(in_features=128, out_features=256, bias=True)
                  (act): ReLU()
                  (fc2): Linear(in_features=256, out_features=128, bias=True)
                )
                (1): CWI_FFN_Layer_3D(
                  (bn): BatchNorm1d(128, eps=0.001, momentum=0.01, affine=True, track_running_stats=True)
                  (conv_k): SubMConv3d(32, 32, kernel_size=[3, 3, 3], stride=[1, 1, 1], padding=[1, 1, 1], dilation=[1, 1, 1], output_padding=[0, 0, 0], algo=ConvAlgo.MaskImplicitGemm)
                  (conv_h): SubMConv3d(32, 32, kernel_size=[1, 1, 21], stride=[1, 1, 1], padding=[0, 0, 10], dilation=[1, 1, 1], output_padding=[0, 0, 0], algo=ConvAlgo.MaskImplicitGemm)
                  (conv_w): SubMConv3d(32, 32, kernel_size=[1, 21, 1], stride=[1, 1, 1], padding=[0, 10, 0], dilation=[1, 1, 1], output_padding=[0, 0, 0], algo=ConvAlgo.MaskImplicitGemm)
                  (bn2): BatchNorm1d(128, eps=0.001, momentum=0.01, affine=True, track_running_stats=True)
                  (fc1): Linear(in_features=128, out_features=256, bias=True)
                  (act): ReLU()
                  (fc2): Linear(in_features=256, out_features=128, bias=True)
                )
              )
            )
            (1): SFLayer(
              (self_norm_layers): ModuleList(
                (0): BatchNorm1d(128, eps=0.001, momentum=0.01, affine=True, track_running_stats=True)
                (1): BatchNorm1d(128, eps=0.001, momentum=0.01, affine=True, track_running_stats=True)
              )
              (self_attn_layers): ModuleList(
                (0): SelfAttnLayer(
                  (qkv): Linear(in_features=128, out_features=384, bias=False)
                  (proj): Linear(in_features=128, out_features=128, bias=True)
                )
                (1): SelfAttnLayer(
                  (qkv): Linear(in_features=128, out_features=384, bias=False)
                  (proj): Linear(in_features=128, out_features=128, bias=True)
                )
              )
              (ffn_layers): ModuleList(
                (0): CWI_FFN_Layer_3D(
                  (bn): BatchNorm1d(128, eps=0.001, momentum=0.01, affine=True, track_running_stats=True)
                  (conv_k): SubMConv3d(32, 32, kernel_size=[3, 3, 3], stride=[1, 1, 1], padding=[1, 1, 1], dilation=[1, 1, 1], output_padding=[0, 0, 0], algo=ConvAlgo.MaskImplicitGemm)
                  (conv_h): SubMConv3d(32, 32, kernel_size=[1, 1, 21], stride=[1, 1, 1], padding=[0, 0, 10], dilation=[1, 1, 1], output_padding=[0, 0, 0], algo=ConvAlgo.MaskImplicitGemm)
                  (conv_w): SubMConv3d(32, 32, kernel_size=[1, 21, 1], stride=[1, 1, 1], padding=[0, 10, 0], dilation=[1, 1, 1], output_padding=[0, 0, 0], algo=ConvAlgo.MaskImplicitGemm)
                  (bn2): BatchNorm1d(128, eps=0.001, momentum=0.01, affine=True, track_running_stats=True)
                  (fc1): Linear(in_features=128, out_features=256, bias=True)
                  (act): ReLU()
                  (fc2): Linear(in_features=256, out_features=128, bias=True)
                )
                (1): CWI_FFN_Layer_3D(
                  (bn): BatchNorm1d(128, eps=0.001, momentum=0.01, affine=True, track_running_stats=True)
                  (conv_k): SubMConv3d(32, 32, kernel_size=[3, 3, 3], stride=[1, 1, 1], padding=[1, 1, 1], dilation=[1, 1, 1], output_padding=[0, 0, 0], algo=ConvAlgo.MaskImplicitGemm)
                  (conv_h): SubMConv3d(32, 32, kernel_size=[1, 1, 21], stride=[1, 1, 1], padding=[0, 0, 10], dilation=[1, 1, 1], output_padding=[0, 0, 0], algo=ConvAlgo.MaskImplicitGemm)
                  (conv_w): SubMConv3d(32, 32, kernel_size=[1, 21, 1], stride=[1, 1, 1], padding=[0, 10, 0], dilation=[1, 1, 1], output_padding=[0, 0, 0], algo=ConvAlgo.MaskImplicitGemm)
                  (bn2): BatchNorm1d(128, eps=0.001, momentum=0.01, affine=True, track_running_stats=True)
                  (fc1): Linear(in_features=128, out_features=256, bias=True)
                  (act): ReLU()
                  (fc2): Linear(in_features=256, out_features=128, bias=True)
                )
              )
            )
          )
        )
        (1): BatchNorm1d(128, eps=0.001, momentum=0.01, affine=True, track_running_stats=True)
        (2): SparseConv3d(128, 128, kernel_size=[3, 3, 3], stride=[2, 2, 2], padding=[1, 1, 1], dilation=[1, 1, 1], output_padding=[0, 0, 0], bias=False, algo=ConvAlgo.MaskImplicitGemm)
      )
      (stage2): SparseSequential(
        (0): SlotFormer(
          (sla_layers): ModuleList(
            (0): SFLayer(
              (self_norm_layers): ModuleList(
                (0): BatchNorm1d(128, eps=0.001, momentum=0.01, affine=True, track_running_stats=True)
                (1): BatchNorm1d(128, eps=0.001, momentum=0.01, affine=True, track_running_stats=True)
              )
              (self_attn_layers): ModuleList(
                (0): SelfAttnLayer(
                  (qkv): Linear(in_features=128, out_features=384, bias=False)
                  (proj): Linear(in_features=128, out_features=128, bias=True)
                )
                (1): SelfAttnLayer(
                  (qkv): Linear(in_features=128, out_features=384, bias=False)
                  (proj): Linear(in_features=128, out_features=128, bias=True)
                )
              )
              (ffn_layers): ModuleList(
                (0): CWI_FFN_Layer_3D(
                  (bn): BatchNorm1d(128, eps=0.001, momentum=0.01, affine=True, track_running_stats=True)
                  (conv_k): SubMConv3d(32, 32, kernel_size=[3, 3, 3], stride=[1, 1, 1], padding=[1, 1, 1], dilation=[1, 1, 1], output_padding=[0, 0, 0], algo=ConvAlgo.MaskImplicitGemm)
                  (conv_h): SubMConv3d(32, 32, kernel_size=[1, 1, 21], stride=[1, 1, 1], padding=[0, 0, 10], dilation=[1, 1, 1], output_padding=[0, 0, 0], algo=ConvAlgo.MaskImplicitGemm)
                  (conv_w): SubMConv3d(32, 32, kernel_size=[1, 21, 1], stride=[1, 1, 1], padding=[0, 10, 0], dilation=[1, 1, 1], output_padding=[0, 0, 0], algo=ConvAlgo.MaskImplicitGemm)
                  (bn2): BatchNorm1d(128, eps=0.001, momentum=0.01, affine=True, track_running_stats=True)
                  (fc1): Linear(in_features=128, out_features=256, bias=True)
                  (act): ReLU()
                  (fc2): Linear(in_features=256, out_features=128, bias=True)
                )
                (1): CWI_FFN_Layer_3D(
                  (bn): BatchNorm1d(128, eps=0.001, momentum=0.01, affine=True, track_running_stats=True)
                  (conv_k): SubMConv3d(32, 32, kernel_size=[3, 3, 3], stride=[1, 1, 1], padding=[1, 1, 1], dilation=[1, 1, 1], output_padding=[0, 0, 0], algo=ConvAlgo.MaskImplicitGemm)
                  (conv_h): SubMConv3d(32, 32, kernel_size=[1, 1, 21], stride=[1, 1, 1], padding=[0, 0, 10], dilation=[1, 1, 1], output_padding=[0, 0, 0], algo=ConvAlgo.MaskImplicitGemm)
                  (conv_w): SubMConv3d(32, 32, kernel_size=[1, 21, 1], stride=[1, 1, 1], padding=[0, 10, 0], dilation=[1, 1, 1], output_padding=[0, 0, 0], algo=ConvAlgo.MaskImplicitGemm)
                  (bn2): BatchNorm1d(128, eps=0.001, momentum=0.01, affine=True, track_running_stats=True)
                  (fc1): Linear(in_features=128, out_features=256, bias=True)
                  (act): ReLU()
                  (fc2): Linear(in_features=256, out_features=128, bias=True)
                )
              )
            )
            (1): SFLayer(
              (self_norm_layers): ModuleList(
                (0): BatchNorm1d(128, eps=0.001, momentum=0.01, affine=True, track_running_stats=True)
                (1): BatchNorm1d(128, eps=0.001, momentum=0.01, affine=True, track_running_stats=True)
              )
              (self_attn_layers): ModuleList(
                (0): SelfAttnLayer(
                  (qkv): Linear(in_features=128, out_features=384, bias=False)
                  (proj): Linear(in_features=128, out_features=128, bias=True)
                )
                (1): SelfAttnLayer(
                  (qkv): Linear(in_features=128, out_features=384, bias=False)
                  (proj): Linear(in_features=128, out_features=128, bias=True)
                )
              )
              (ffn_layers): ModuleList(
                (0): CWI_FFN_Layer_3D(
                  (bn): BatchNorm1d(128, eps=0.001, momentum=0.01, affine=True, track_running_stats=True)
                  (conv_k): SubMConv3d(32, 32, kernel_size=[3, 3, 3], stride=[1, 1, 1], padding=[1, 1, 1], dilation=[1, 1, 1], output_padding=[0, 0, 0], algo=ConvAlgo.MaskImplicitGemm)
                  (conv_h): SubMConv3d(32, 32, kernel_size=[1, 1, 21], stride=[1, 1, 1], padding=[0, 0, 10], dilation=[1, 1, 1], output_padding=[0, 0, 0], algo=ConvAlgo.MaskImplicitGemm)
                  (conv_w): SubMConv3d(32, 32, kernel_size=[1, 21, 1], stride=[1, 1, 1], padding=[0, 10, 0], dilation=[1, 1, 1], output_padding=[0, 0, 0], algo=ConvAlgo.MaskImplicitGemm)
                  (bn2): BatchNorm1d(128, eps=0.001, momentum=0.01, affine=True, track_running_stats=True)
                  (fc1): Linear(in_features=128, out_features=256, bias=True)
                  (act): ReLU()
                  (fc2): Linear(in_features=256, out_features=128, bias=True)
                )
                (1): CWI_FFN_Layer_3D(
                  (bn): BatchNorm1d(128, eps=0.001, momentum=0.01, affine=True, track_running_stats=True)
                  (conv_k): SubMConv3d(32, 32, kernel_size=[3, 3, 3], stride=[1, 1, 1], padding=[1, 1, 1], dilation=[1, 1, 1], output_padding=[0, 0, 0], algo=ConvAlgo.MaskImplicitGemm)
                  (conv_h): SubMConv3d(32, 32, kernel_size=[1, 1, 21], stride=[1, 1, 1], padding=[0, 0, 10], dilation=[1, 1, 1], output_padding=[0, 0, 0], algo=ConvAlgo.MaskImplicitGemm)
                  (conv_w): SubMConv3d(32, 32, kernel_size=[1, 21, 1], stride=[1, 1, 1], padding=[0, 10, 0], dilation=[1, 1, 1], output_padding=[0, 0, 0], algo=ConvAlgo.MaskImplicitGemm)
                  (bn2): BatchNorm1d(128, eps=0.001, momentum=0.01, affine=True, track_running_stats=True)
                  (fc1): Linear(in_features=128, out_features=256, bias=True)
                  (act): ReLU()
                  (fc2): Linear(in_features=256, out_features=128, bias=True)
                )
              )
            )
          )
        )
        (1): BatchNorm1d(128, eps=0.001, momentum=0.01, affine=True, track_running_stats=True)
      )
      (app): AttnPillarPool(
        (query_func): SparseMaxPool3d(kernel_size=[10, 1, 1], stride=[10, 1, 1], padding=[0, 0, 0], dilation=[1, 1, 1], algo=ConvAlgo.MaskImplicitGemm)
        (norm): LayerNorm((128,), eps=1e-05, elementwise_affine=True)
        (self_attn): MultiheadAttention(
          (out_proj): NonDynamicallyQuantizableLinear(in_features=128, out_features=128, bias=True)
        )
        (pos_embedding): Embedding(10, 128)
      )
      (cls_conv): SparseSequential(
        (0): SubMConv2d(128, 128, kernel_size=[3, 3], stride=[1, 1], padding=[1, 1], dilation=[1, 1], output_padding=[0, 0], bias=False, algo=ConvAlgo.MaskImplicitGemm)
        (1): BatchNorm1d(128, eps=0.001, momentum=0.01, affine=True, track_running_stats=True)
        (2): ReLU()
        (3): SubMConv2d(128, 3, kernel_size=[1, 1], stride=[1, 1], padding=[0, 0], dilation=[1, 1], output_padding=[0, 0], algo=ConvAlgo.MaskImplicitGemm)
      )
      (afd_layers): ModuleList(
        (0): SEDLayer(
          (encoder): ModuleList(
            (0): SparseSequential(
              (0): SparseBasicBlock2D(
                (conv1): SubMConv2d(128, 128, kernel_size=[3, 3], stride=[1, 1], padding=[1, 1], dilation=[1, 1], output_padding=[0, 0], bias=False, algo=ConvAlgo.MaskImplicitGemm)
                (bn1): BatchNorm1d(128, eps=0.001, momentum=0.01, affine=True, track_running_stats=True)
                (conv2): SubMConv2d(128, 128, kernel_size=[3, 3], stride=[1, 1], padding=[1, 1], dilation=[1, 1], output_padding=[0, 0], bias=False, algo=ConvAlgo.MaskImplicitGemm)
                (bn2): BatchNorm1d(128, eps=0.001, momentum=0.01, affine=True, track_running_stats=True)
                (relu): ReLU()
              )
              (1): SparseBasicBlock2D(
                (conv1): SubMConv2d(128, 128, kernel_size=[3, 3], stride=[1, 1], padding=[1, 1], dilation=[1, 1], output_padding=[0, 0], bias=False, algo=ConvAlgo.MaskImplicitGemm)
                (bn1): BatchNorm1d(128, eps=0.001, momentum=0.01, affine=True, track_running_stats=True)
                (conv2): SubMConv2d(128, 128, kernel_size=[3, 3], stride=[1, 1], padding=[1, 1], dilation=[1, 1], output_padding=[0, 0], bias=False, algo=ConvAlgo.MaskImplicitGemm)
                (bn2): BatchNorm1d(128, eps=0.001, momentum=0.01, affine=True, track_running_stats=True)
                (relu): ReLU()
              )
            )
            (1): SparseSequential(
              (0): SparseSequential(
                (0): SparseConv2d(128, 128, kernel_size=[3, 3], stride=[2, 2], padding=[1, 1], dilation=[1, 1], output_padding=[0, 0], bias=False, algo=ConvAlgo.MaskImplicitGemm)
                (1): BatchNorm1d(128, eps=0.001, momentum=0.01, affine=True, track_running_stats=True)
                (2): ReLU()
              )
              (1): SparseBasicBlock2D(
                (conv1): SubMConv2d(128, 128, kernel_size=[3, 3], stride=[1, 1], padding=[1, 1], dilation=[1, 1], output_padding=[0, 0], bias=False, algo=ConvAlgo.MaskImplicitGemm)
                (bn1): BatchNorm1d(128, eps=0.001, momentum=0.01, affine=True, track_running_stats=True)
                (conv2): SubMConv2d(128, 128, kernel_size=[3, 3], stride=[1, 1], padding=[1, 1], dilation=[1, 1], output_padding=[0, 0], bias=False, algo=ConvAlgo.MaskImplicitGemm)
                (bn2): BatchNorm1d(128, eps=0.001, momentum=0.01, affine=True, track_running_stats=True)
                (relu): ReLU()
              )
            )
            (2): SparseSequential(
              (0): SparseSequential(
                (0): SparseConv2d(128, 128, kernel_size=[3, 3], stride=[2, 2], padding=[1, 1], dilation=[1, 1], output_padding=[0, 0], bias=False, algo=ConvAlgo.MaskImplicitGemm)
                (1): BatchNorm1d(128, eps=0.001, momentum=0.01, affine=True, track_running_stats=True)
                (2): ReLU()
              )
              (1): SparseBasicBlock2D(
                (conv1): SubMConv2d(128, 128, kernel_size=[3, 3], stride=[1, 1], padding=[1, 1], dilation=[1, 1], output_padding=[0, 0], bias=False, algo=ConvAlgo.MaskImplicitGemm)
                (bn1): BatchNorm1d(128, eps=0.001, momentum=0.01, affine=True, track_running_stats=True)
                (conv2): SubMConv2d(128, 128, kernel_size=[3, 3], stride=[1, 1], padding=[1, 1], dilation=[1, 1], output_padding=[0, 0], bias=False, algo=ConvAlgo.MaskImplicitGemm)
                (bn2): BatchNorm1d(128, eps=0.001, momentum=0.01, affine=True, track_running_stats=True)
                (relu): ReLU()
              )
            )
          )
          (decoder): ModuleList(
            (0): SparseSequential(
              (0): SparseInverseConv2d(128, 128, kernel_size=[3, 3], stride=[1, 1], padding=[0, 0], dilation=[1, 1], output_padding=[0, 0], bias=False, algo=ConvAlgo.MaskImplicitGemm)
              (1): BatchNorm1d(128, eps=0.001, momentum=0.01, affine=True, track_running_stats=True)
              (2): ReLU()
            )
            (1): SparseSequential(
              (0): SparseInverseConv2d(128, 128, kernel_size=[3, 3], stride=[1, 1], padding=[0, 0], dilation=[1, 1], output_padding=[0, 0], bias=False, algo=ConvAlgo.MaskImplicitGemm)
              (1): BatchNorm1d(128, eps=0.001, momentum=0.01, affine=True, track_running_stats=True)
              (2): ReLU()
            )
          )
          (decoder_norm): ModuleList(
            (0): BatchNorm1d(128, eps=0.001, momentum=0.01, affine=True, track_running_stats=True)
            (1): BatchNorm1d(128, eps=0.001, momentum=0.01, affine=True, track_running_stats=True)
          )
        )
        (1): SEDLayer(
          (encoder): ModuleList(
            (0): SparseSequential(
              (0): SparseBasicBlock2D(
                (conv1): SubMConv2d(128, 128, kernel_size=[3, 3], stride=[1, 1], padding=[1, 1], dilation=[1, 1], output_padding=[0, 0], bias=False, algo=ConvAlgo.MaskImplicitGemm)
                (bn1): BatchNorm1d(128, eps=0.001, momentum=0.01, affine=True, track_running_stats=True)
                (conv2): SubMConv2d(128, 128, kernel_size=[3, 3], stride=[1, 1], padding=[1, 1], dilation=[1, 1], output_padding=[0, 0], bias=False, algo=ConvAlgo.MaskImplicitGemm)
                (bn2): BatchNorm1d(128, eps=0.001, momentum=0.01, affine=True, track_running_stats=True)
                (relu): ReLU()
              )
              (1): SparseBasicBlock2D(
                (conv1): SubMConv2d(128, 128, kernel_size=[3, 3], stride=[1, 1], padding=[1, 1], dilation=[1, 1], output_padding=[0, 0], bias=False, algo=ConvAlgo.MaskImplicitGemm)
                (bn1): BatchNorm1d(128, eps=0.001, momentum=0.01, affine=True, track_running_stats=True)
                (conv2): SubMConv2d(128, 128, kernel_size=[3, 3], stride=[1, 1], padding=[1, 1], dilation=[1, 1], output_padding=[0, 0], bias=False, algo=ConvAlgo.MaskImplicitGemm)
                (bn2): BatchNorm1d(128, eps=0.001, momentum=0.01, affine=True, track_running_stats=True)
                (relu): ReLU()
              )
            )
            (1): SparseSequential(
              (0): SparseSequential(
                (0): SparseConv2d(128, 128, kernel_size=[3, 3], stride=[2, 2], padding=[1, 1], dilation=[1, 1], output_padding=[0, 0], bias=False, algo=ConvAlgo.MaskImplicitGemm)
                (1): BatchNorm1d(128, eps=0.001, momentum=0.01, affine=True, track_running_stats=True)
                (2): ReLU()
              )
              (1): SparseBasicBlock2D(
                (conv1): SubMConv2d(128, 128, kernel_size=[3, 3], stride=[1, 1], padding=[1, 1], dilation=[1, 1], output_padding=[0, 0], bias=False, algo=ConvAlgo.MaskImplicitGemm)
                (bn1): BatchNorm1d(128, eps=0.001, momentum=0.01, affine=True, track_running_stats=True)
                (conv2): SubMConv2d(128, 128, kernel_size=[3, 3], stride=[1, 1], padding=[1, 1], dilation=[1, 1], output_padding=[0, 0], bias=False, algo=ConvAlgo.MaskImplicitGemm)
                (bn2): BatchNorm1d(128, eps=0.001, momentum=0.01, affine=True, track_running_stats=True)
                (relu): ReLU()
              )
            )
            (2): SparseSequential(
              (0): SparseSequential(
                (0): SparseConv2d(128, 128, kernel_size=[3, 3], stride=[2, 2], padding=[1, 1], dilation=[1, 1], output_padding=[0, 0], bias=False, algo=ConvAlgo.MaskImplicitGemm)
                (1): BatchNorm1d(128, eps=0.001, momentum=0.01, affine=True, track_running_stats=True)
                (2): ReLU()
              )
              (1): SparseBasicBlock2D(
                (conv1): SubMConv2d(128, 128, kernel_size=[3, 3], stride=[1, 1], padding=[1, 1], dilation=[1, 1], output_padding=[0, 0], bias=False, algo=ConvAlgo.MaskImplicitGemm)
                (bn1): BatchNorm1d(128, eps=0.001, momentum=0.01, affine=True, track_running_stats=True)
                (conv2): SubMConv2d(128, 128, kernel_size=[3, 3], stride=[1, 1], padding=[1, 1], dilation=[1, 1], output_padding=[0, 0], bias=False, algo=ConvAlgo.MaskImplicitGemm)
                (bn2): BatchNorm1d(128, eps=0.001, momentum=0.01, affine=True, track_running_stats=True)
                (relu): ReLU()
              )
            )
          )
          (decoder): ModuleList(
            (0): SparseSequential(
              (0): SparseInverseConv2d(128, 128, kernel_size=[3, 3], stride=[1, 1], padding=[0, 0], dilation=[1, 1], output_padding=[0, 0], bias=False, algo=ConvAlgo.MaskImplicitGemm)
              (1): BatchNorm1d(128, eps=0.001, momentum=0.01, affine=True, track_running_stats=True)
              (2): ReLU()
            )
            (1): SparseSequential(
              (0): SparseInverseConv2d(128, 128, kernel_size=[3, 3], stride=[1, 1], padding=[0, 0], dilation=[1, 1], output_padding=[0, 0], bias=False, algo=ConvAlgo.MaskImplicitGemm)
              (1): BatchNorm1d(128, eps=0.001, momentum=0.01, affine=True, track_running_stats=True)
              (2): ReLU()
            )
          )
          (decoder_norm): ModuleList(
            (0): BatchNorm1d(128, eps=0.001, momentum=0.01, affine=True, track_running_stats=True)
            (1): BatchNorm1d(128, eps=0.001, momentum=0.01, affine=True, track_running_stats=True)
          )
        )
        (2): SEDLayer(
          (encoder): ModuleList(
            (0): SparseSequential(
              (0): SparseBasicBlock2D(
                (conv1): SubMConv2d(128, 128, kernel_size=[3, 3], stride=[1, 1], padding=[1, 1], dilation=[1, 1], output_padding=[0, 0], bias=False, algo=ConvAlgo.MaskImplicitGemm)
                (bn1): BatchNorm1d(128, eps=0.001, momentum=0.01, affine=True, track_running_stats=True)
                (conv2): SubMConv2d(128, 128, kernel_size=[3, 3], stride=[1, 1], padding=[1, 1], dilation=[1, 1], output_padding=[0, 0], bias=False, algo=ConvAlgo.MaskImplicitGemm)
                (bn2): BatchNorm1d(128, eps=0.001, momentum=0.01, affine=True, track_running_stats=True)
                (relu): ReLU()
              )
              (1): SparseBasicBlock2D(
                (conv1): SubMConv2d(128, 128, kernel_size=[3, 3], stride=[1, 1], padding=[1, 1], dilation=[1, 1], output_padding=[0, 0], bias=False, algo=ConvAlgo.MaskImplicitGemm)
                (bn1): BatchNorm1d(128, eps=0.001, momentum=0.01, affine=True, track_running_stats=True)
                (conv2): SubMConv2d(128, 128, kernel_size=[3, 3], stride=[1, 1], padding=[1, 1], dilation=[1, 1], output_padding=[0, 0], bias=False, algo=ConvAlgo.MaskImplicitGemm)
                (bn2): BatchNorm1d(128, eps=0.001, momentum=0.01, affine=True, track_running_stats=True)
                (relu): ReLU()
              )
            )
            (1): SparseSequential(
              (0): SparseSequential(
                (0): SparseConv2d(128, 128, kernel_size=[3, 3], stride=[2, 2], padding=[1, 1], dilation=[1, 1], output_padding=[0, 0], bias=False, algo=ConvAlgo.MaskImplicitGemm)
                (1): BatchNorm1d(128, eps=0.001, momentum=0.01, affine=True, track_running_stats=True)
                (2): ReLU()
              )
              (1): SparseBasicBlock2D(
                (conv1): SubMConv2d(128, 128, kernel_size=[3, 3], stride=[1, 1], padding=[1, 1], dilation=[1, 1], output_padding=[0, 0], bias=False, algo=ConvAlgo.MaskImplicitGemm)
                (bn1): BatchNorm1d(128, eps=0.001, momentum=0.01, affine=True, track_running_stats=True)
                (conv2): SubMConv2d(128, 128, kernel_size=[3, 3], stride=[1, 1], padding=[1, 1], dilation=[1, 1], output_padding=[0, 0], bias=False, algo=ConvAlgo.MaskImplicitGemm)
                (bn2): BatchNorm1d(128, eps=0.001, momentum=0.01, affine=True, track_running_stats=True)
                (relu): ReLU()
              )
            )
            (2): SparseSequential(
              (0): SparseSequential(
                (0): SparseConv2d(128, 128, kernel_size=[3, 3], stride=[2, 2], padding=[1, 1], dilation=[1, 1], output_padding=[0, 0], bias=False, algo=ConvAlgo.MaskImplicitGemm)
                (1): BatchNorm1d(128, eps=0.001, momentum=0.01, affine=True, track_running_stats=True)
                (2): ReLU()
              )
              (1): SparseBasicBlock2D(
                (conv1): SubMConv2d(128, 128, kernel_size=[3, 3], stride=[1, 1], padding=[1, 1], dilation=[1, 1], output_padding=[0, 0], bias=False, algo=ConvAlgo.MaskImplicitGemm)
                (bn1): BatchNorm1d(128, eps=0.001, momentum=0.01, affine=True, track_running_stats=True)
                (conv2): SubMConv2d(128, 128, kernel_size=[3, 3], stride=[1, 1], padding=[1, 1], dilation=[1, 1], output_padding=[0, 0], bias=False, algo=ConvAlgo.MaskImplicitGemm)
                (bn2): BatchNorm1d(128, eps=0.001, momentum=0.01, affine=True, track_running_stats=True)
                (relu): ReLU()
              )
            )
          )
          (decoder): ModuleList(
            (0): SparseSequential(
              (0): SparseInverseConv2d(128, 128, kernel_size=[3, 3], stride=[1, 1], padding=[0, 0], dilation=[1, 1], output_padding=[0, 0], bias=False, algo=ConvAlgo.MaskImplicitGemm)
              (1): BatchNorm1d(128, eps=0.001, momentum=0.01, affine=True, track_running_stats=True)
              (2): ReLU()
            )
            (1): SparseSequential(
              (0): SparseInverseConv2d(128, 128, kernel_size=[3, 3], stride=[1, 1], padding=[0, 0], dilation=[1, 1], output_padding=[0, 0], bias=False, algo=ConvAlgo.MaskImplicitGemm)
              (1): BatchNorm1d(128, eps=0.001, momentum=0.01, affine=True, track_running_stats=True)
              (2): ReLU()
            )
          )
          (decoder_norm): ModuleList(
            (0): BatchNorm1d(128, eps=0.001, momentum=0.01, affine=True, track_running_stats=True)
            (1): BatchNorm1d(128, eps=0.001, momentum=0.01, affine=True, track_running_stats=True)
          )
        )
        (3): SEDLayer(
          (encoder): ModuleList(
            (0): SparseSequential(
              (0): SparseBasicBlock2D(
                (conv1): SubMConv2d(128, 128, kernel_size=[3, 3], stride=[1, 1], padding=[1, 1], dilation=[1, 1], output_padding=[0, 0], bias=False, algo=ConvAlgo.MaskImplicitGemm)
                (bn1): BatchNorm1d(128, eps=0.001, momentum=0.01, affine=True, track_running_stats=True)
                (conv2): SubMConv2d(128, 128, kernel_size=[3, 3], stride=[1, 1], padding=[1, 1], dilation=[1, 1], output_padding=[0, 0], bias=False, algo=ConvAlgo.MaskImplicitGemm)
                (bn2): BatchNorm1d(128, eps=0.001, momentum=0.01, affine=True, track_running_stats=True)
                (relu): ReLU()
              )
              (1): SparseBasicBlock2D(
                (conv1): SubMConv2d(128, 128, kernel_size=[3, 3], stride=[1, 1], padding=[1, 1], dilation=[1, 1], output_padding=[0, 0], bias=False, algo=ConvAlgo.MaskImplicitGemm)
                (bn1): BatchNorm1d(128, eps=0.001, momentum=0.01, affine=True, track_running_stats=True)
                (conv2): SubMConv2d(128, 128, kernel_size=[3, 3], stride=[1, 1], padding=[1, 1], dilation=[1, 1], output_padding=[0, 0], bias=False, algo=ConvAlgo.MaskImplicitGemm)
                (bn2): BatchNorm1d(128, eps=0.001, momentum=0.01, affine=True, track_running_stats=True)
                (relu): ReLU()
              )
            )
            (1): SparseSequential(
              (0): SparseSequential(
                (0): SparseConv2d(128, 128, kernel_size=[3, 3], stride=[2, 2], padding=[1, 1], dilation=[1, 1], output_padding=[0, 0], bias=False, algo=ConvAlgo.MaskImplicitGemm)
                (1): BatchNorm1d(128, eps=0.001, momentum=0.01, affine=True, track_running_stats=True)
                (2): ReLU()
              )
              (1): SparseBasicBlock2D(
                (conv1): SubMConv2d(128, 128, kernel_size=[3, 3], stride=[1, 1], padding=[1, 1], dilation=[1, 1], output_padding=[0, 0], bias=False, algo=ConvAlgo.MaskImplicitGemm)
                (bn1): BatchNorm1d(128, eps=0.001, momentum=0.01, affine=True, track_running_stats=True)
                (conv2): SubMConv2d(128, 128, kernel_size=[3, 3], stride=[1, 1], padding=[1, 1], dilation=[1, 1], output_padding=[0, 0], bias=False, algo=ConvAlgo.MaskImplicitGemm)
                (bn2): BatchNorm1d(128, eps=0.001, momentum=0.01, affine=True, track_running_stats=True)
                (relu): ReLU()
              )
            )
            (2): SparseSequential(
              (0): SparseSequential(
                (0): SparseConv2d(128, 128, kernel_size=[3, 3], stride=[2, 2], padding=[1, 1], dilation=[1, 1], output_padding=[0, 0], bias=False, algo=ConvAlgo.MaskImplicitGemm)
                (1): BatchNorm1d(128, eps=0.001, momentum=0.01, affine=True, track_running_stats=True)
                (2): ReLU()
              )
              (1): SparseBasicBlock2D(
                (conv1): SubMConv2d(128, 128, kernel_size=[3, 3], stride=[1, 1], padding=[1, 1], dilation=[1, 1], output_padding=[0, 0], bias=False, algo=ConvAlgo.MaskImplicitGemm)
                (bn1): BatchNorm1d(128, eps=0.001, momentum=0.01, affine=True, track_running_stats=True)
                (conv2): SubMConv2d(128, 128, kernel_size=[3, 3], stride=[1, 1], padding=[1, 1], dilation=[1, 1], output_padding=[0, 0], bias=False, algo=ConvAlgo.MaskImplicitGemm)
                (bn2): BatchNorm1d(128, eps=0.001, momentum=0.01, affine=True, track_running_stats=True)
                (relu): ReLU()
              )
            )
          )
          (decoder): ModuleList(
            (0): SparseSequential(
              (0): SparseInverseConv2d(128, 128, kernel_size=[3, 3], stride=[1, 1], padding=[0, 0], dilation=[1, 1], output_padding=[0, 0], bias=False, algo=ConvAlgo.MaskImplicitGemm)
              (1): BatchNorm1d(128, eps=0.001, momentum=0.01, affine=True, track_running_stats=True)
              (2): ReLU()
            )
            (1): SparseSequential(
              (0): SparseInverseConv2d(128, 128, kernel_size=[3, 3], stride=[1, 1], padding=[0, 0], dilation=[1, 1], output_padding=[0, 0], bias=False, algo=ConvAlgo.MaskImplicitGemm)
              (1): BatchNorm1d(128, eps=0.001, momentum=0.01, affine=True, track_running_stats=True)
              (2): ReLU()
            )
          )
          (decoder_norm): ModuleList(
            (0): BatchNorm1d(128, eps=0.001, momentum=0.01, affine=True, track_running_stats=True)
            (1): BatchNorm1d(128, eps=0.001, momentum=0.01, affine=True, track_running_stats=True)
          )
        )
      )
      (shared_conv): SparseSequential(
        (0): SubMConv2d(128, 128, kernel_size=[3, 3], stride=[1, 1], padding=[1, 1], dilation=[1, 1], output_padding=[0, 0], bias=False, algo=ConvAlgo.MaskImplicitGemm)
        (1): BatchNorm1d(128, eps=1e-05, momentum=0.1, affine=True, track_running_stats=True)
        (2): ReLU()
      )
    )
    (map_to_bev_module): None
    (pfe): None
    (backbone_2d): None
    (dense_head): TransFusionHead(
      (loss_cls): SigmoidFocalClassificationLoss()
      (loss_bbox): L1Loss()
      (loss_heatmap): GaussianFocalLoss()
      (shared_conv): Conv2d(128, 128, kernel_size=(3, 3), stride=(1, 1), padding=(1, 1))
      (heatmap_head): Sequential(
        (0): BasicBlock2D(
          (conv): Conv2d(128, 128, kernel_size=(3, 3), stride=(1, 1), padding=(1, 1))
          (bn): BatchNorm2d(128, eps=1e-05, momentum=0.1, affine=True, track_running_stats=True)
          (relu): ReLU(inplace=True)
        )
        (1): Conv2d(128, 10, kernel_size=(3, 3), stride=(1, 1), padding=(1, 1))
      )
      (class_encoding): Conv1d(10, 128, kernel_size=(1,), stride=(1,))
      (decoder): TransformerDecoderLayer(
        (self_attn): MultiheadAttention(
          (out_proj): NonDynamicallyQuantizableLinear(in_features=128, out_features=128, bias=True)
        )
        (multihead_attn): MultiheadAttention(
          (out_proj): NonDynamicallyQuantizableLinear(in_features=128, out_features=128, bias=True)
        )
        (linear1): Linear(in_features=128, out_features=256, bias=True)
        (dropout): Dropout(p=0.1, inplace=False)
        (linear2): Linear(in_features=256, out_features=128, bias=True)
        (norm1): LayerNorm((128,), eps=1e-05, elementwise_affine=True)
        (norm2): LayerNorm((128,), eps=1e-05, elementwise_affine=True)
        (norm3): LayerNorm((128,), eps=1e-05, elementwise_affine=True)
        (dropout1): Dropout(p=0.1, inplace=False)
        (dropout2): Dropout(p=0.1, inplace=False)
        (dropout3): Dropout(p=0.1, inplace=False)
        (self_posembed): PositionEmbeddingLearned(
          (position_embedding_head): Sequential(
            (0): Conv1d(2, 128, kernel_size=(1,), stride=(1,))
            (1): BatchNorm1d(128, eps=1e-05, momentum=0.1, affine=True, track_running_stats=True)
            (2): ReLU(inplace=True)
            (3): Conv1d(128, 128, kernel_size=(1,), stride=(1,))
          )
        )
        (cross_posembed): PositionEmbeddingLearned(
          (position_embedding_head): Sequential(
            (0): Conv1d(2, 128, kernel_size=(1,), stride=(1,))
            (1): BatchNorm1d(128, eps=1e-05, momentum=0.1, affine=True, track_running_stats=True)
            (2): ReLU(inplace=True)
            (3): Conv1d(128, 128, kernel_size=(1,), stride=(1,))
          )
        )
      )
      (prediction_head): SeparateHead_Transfusion(
        (center): Sequential(
          (0): Sequential(
            (0): Conv1d(128, 64, kernel_size=(1,), stride=(1,))
            (1): BatchNorm1d(64, eps=1e-05, momentum=0.1, affine=True, track_running_stats=True)
            (2): ReLU()
          )
          (1): Conv1d(64, 2, kernel_size=(1,), stride=(1,))
        )
        (height): Sequential(
          (0): Sequential(
            (0): Conv1d(128, 64, kernel_size=(1,), stride=(1,))
            (1): BatchNorm1d(64, eps=1e-05, momentum=0.1, affine=True, track_running_stats=True)
            (2): ReLU()
          )
          (1): Conv1d(64, 1, kernel_size=(1,), stride=(1,))
        )
        (dim): Sequential(
          (0): Sequential(
            (0): Conv1d(128, 64, kernel_size=(1,), stride=(1,))
            (1): BatchNorm1d(64, eps=1e-05, momentum=0.1, affine=True, track_running_stats=True)
            (2): ReLU()
          )
          (1): Conv1d(64, 3, kernel_size=(1,), stride=(1,))
        )
        (rot): Sequential(
          (0): Sequential(
            (0): Conv1d(128, 64, kernel_size=(1,), stride=(1,))
            (1): BatchNorm1d(64, eps=1e-05, momentum=0.1, affine=True, track_running_stats=True)
            (2): ReLU()
          )
          (1): Conv1d(64, 2, kernel_size=(1,), stride=(1,))
        )
        (vel): Sequential(
          (0): Sequential(
            (0): Conv1d(128, 64, kernel_size=(1,), stride=(1,))
            (1): BatchNorm1d(64, eps=1e-05, momentum=0.1, affine=True, track_running_stats=True)
            (2): ReLU()
          )
          (1): Conv1d(64, 2, kernel_size=(1,), stride=(1,))
        )
        (iou): Sequential(
          (0): Sequential(
            (0): Conv1d(128, 64, kernel_size=(1,), stride=(1,))
            (1): BatchNorm1d(64, eps=1e-05, momentum=0.1, affine=True, track_running_stats=True)
            (2): ReLU()
          )
          (1): Conv1d(64, 1, kernel_size=(1,), stride=(1,))
        )
        (heatmap): Sequential(
          (0): Sequential(
            (0): Conv1d(128, 64, kernel_size=(1,), stride=(1,))
            (1): BatchNorm1d(64, eps=1e-05, momentum=0.1, affine=True, track_running_stats=True)
            (2): ReLU()
          )
          (1): Conv1d(64, 10, kernel_size=(1,), stride=(1,))
        )
      )
    )
    (point_head): None
    (roi_head): None
  )
)
2025-05-27 08:50:15,849   INFO  **********************Start training nuscenes_models/slotformer(default)**********************
2025-05-27 08:55:17,656   INFO  Save latest model to /home/liush/source/OpenPCDet_58/output/nuscenes_models/slotformer/default/ckpt/latest_model
2025-05-27 09:00:16,889   INFO  Save latest model to /home/liush/source/OpenPCDet_58/output/nuscenes_models/slotformer/default/ckpt/latest_model
…
