…
2025-06-03 10:45:03,655   INFO  GT database has been saved to shared memory
2025-06-03 10:45:06,962   INFO  Loading Waymo dataset
2025-06-03 10:45:51,204   INFO  Total skipped info 0
2025-06-03 10:45:51,204   INFO  Total samples for Waymo dataset: 158081
2025-06-03 10:45:51,216   INFO  Total sampled samples for Waymo dataset: 79041
2025-06-03 10:45:53,022   INFO  ----------- Model CenterPoint created, param count: 11142190 -----------
2025-06-03 10:45:53,022   INFO  DistributedDataParallel(
  (module): CenterPoint(
    (vfe): DynamicVoxelVFE(
      (pfn_layers): ModuleList(
        (0): PFNLayerV2(
          (linear): Linear(in_features=11, out_features=32, bias=False)
          (norm): BatchNorm1d(32, eps=0.001, momentum=0.01, affine=True, track_running_stats=True)
          (relu): ReLU()
        )
        (1): PFNLayerV2(
          (linear): Linear(in_features=64, out_features=64, bias=False)
          (norm): BatchNorm1d(64, eps=0.001, momentum=0.01, affine=True, track_running_stats=True)
          (relu): ReLU()
        )
      )
    )
    (backbone_3d): FSHNet_base(
      (cpe): SparseSequential(
        (0): SparseSequential(
          (0): SubMConv3d(64, 128, kernel_size=[3, 3, 3], stride=[1, 1, 1], padding=[0, 0, 0], dilation=[1, 1, 1], output_padding=[0, 0, 0], bias=False, algo=ConvAlgo.MaskImplicitGemm)
          (1): BatchNorm1d(128, eps=0.001, momentum=0.01, affine=True, track_running_stats=True)
          (2): ReLU()
        )
        (1): SparseBasicBlock(
          (conv1): SubMConv3d(128, 128, kernel_size=[3, 3, 3], stride=[1, 1, 1], padding=[1, 1, 1], dilation=[1, 1, 1], output_padding=[0, 0, 0], algo=ConvAlgo.MaskImplicitGemm)
          (bn1): BatchNorm1d(128, eps=0.001, momentum=0.01, affine=True, track_running_stats=True)
          (relu): ReLU()
          (conv2): SubMConv3d(128, 128, kernel_size=[3, 3, 3], stride=[1, 1, 1], padding=[1, 1, 1], dilation=[1, 1, 1], output_padding=[0, 0, 0], algo=ConvAlgo.MaskImplicitGemm)
          (bn2): BatchNorm1d(128, eps=0.001, momentum=0.01, affine=True, track_running_stats=True)
        )
        (2): SparseBasicBlock(
          (conv1): SubMConv3d(128, 128, kernel_size=[3, 3, 3], stride=[1, 1, 1], padding=[1, 1, 1], dilation=[1, 1, 1], output_padding=[0, 0, 0], algo=ConvAlgo.MaskImplicitGemm)
          (bn1): BatchNorm1d(128, eps=0.001, momentum=0.01, affine=True, track_running_stats=True)
          (relu): ReLU()
          (conv2): SubMConv3d(128, 128, kernel_size=[3, 3, 3], stride=[1, 1, 1], padding=[1, 1, 1], dilation=[1, 1, 1], output_padding=[0, 0, 0], algo=ConvAlgo.MaskImplicitGemm)
          (bn2): BatchNorm1d(128, eps=0.001, momentum=0.01, affine=True, track_running_stats=True)
        )
        (3): SparseBasicBlock(
          (conv1): SubMConv3d(128, 128, kernel_size=[3, 3, 3], stride=[1, 1, 1], padding=[1, 1, 1], dilation=[1, 1, 1], output_padding=[0, 0, 0], algo=ConvAlgo.MaskImplicitGemm)
          (bn1): BatchNorm1d(128, eps=0.001, momentum=0.01, affine=True, track_running_stats=True)
          (relu): ReLU()
          (conv2): SubMConv3d(128, 128, kernel_size=[3, 3, 3], stride=[1, 1, 1], padding=[1, 1, 1], dilation=[1, 1, 1], output_padding=[0, 0, 0], algo=ConvAlgo.MaskImplicitGemm)
          (bn2): BatchNorm1d(128, eps=0.001, momentum=0.01, affine=True, track_running_stats=True)
        )
        (4): SparseSequential(
          (0): SparseConv3d(128, 128, kernel_size=[3, 1, 1], stride=[2, 1, 1], padding=[0, 0, 0], dilation=[1, 1, 1], output_padding=[0, 0, 0], bias=False, algo=ConvAlgo.MaskImplicitGemm)
          (1): BatchNorm1d(128, eps=0.001, momentum=0.01, affine=True, track_running_stats=True)
          (2): ReLU()
        )
      )
      (stage1): SparseSequential(
        (0): SlotFormer(
          (sla_layers): ModuleList(
            (0): SFLayer(
              (self_norm_layers): ModuleList(
                (0): BatchNorm1d(128, eps=0.001, momentum=0.01, affine=True, track_running_stats=True)
                (1): BatchNorm1d(128, eps=0.001, momentum=0.01, affine=True, track_running_stats=True)
              )
              (self_attn_layers): ModuleList(
                (0): SelfAttnLayer(
                  (qkv): Linear(in_features=128, out_features=384, bias=False)
                  (proj): Linear(in_features=128, out_features=128, bias=True)
                )
                (1): SelfAttnLayer(
                  (qkv): Linear(in_features=128, out_features=384, bias=False)
                  (proj): Linear(in_features=128, out_features=128, bias=True)
                )
              )
              (ffn_layers): ModuleList(
                (0): CWI_FFN_Layer_3D(
                  (bn): BatchNorm1d(128, eps=0.001, momentum=0.01, affine=True, track_running_stats=True)
                  (conv_k): SubMConv3d(32, 32, kernel_size=[3, 3, 3], stride=[1, 1, 1], padding=[1, 1, 1], dilation=[1, 1, 1], output_padding=[0, 0, 0], algo=ConvAlgo.MaskImplicitGemm)
                  (conv_h): SubMConv3d(32, 32, kernel_size=[1, 1, 13], stride=[1, 1, 1], padding=[0, 0, 6], dilation=[1, 1, 1], output_padding=[0, 0, 0], algo=ConvAlgo.MaskImplicitGemm)
                  (conv_w): SubMConv3d(32, 32, kernel_size=[1, 13, 1], stride=[1, 1, 1], padding=[0, 6, 0], dilation=[1, 1, 1], output_padding=[0, 0, 0], algo=ConvAlgo.MaskImplicitGemm)
                  (bn2): BatchNorm1d(128, eps=0.001, momentum=0.01, affine=True, track_running_stats=True)
                  (fc1): Linear(in_features=128, out_features=256, bias=True)
                  (act): ReLU()
                  (fc2): Linear(in_features=256, out_features=128, bias=True)
                )
                (1): CWI_FFN_Layer_3D(
                  (bn): BatchNorm1d(128, eps=0.001, momentum=0.01, affine=True, track_running_stats=True)
                  (conv_k): SubMConv3d(32, 32, kernel_size=[3, 3, 3], stride=[1, 1, 1], padding=[1, 1, 1], dilation=[1, 1, 1], output_padding=[0, 0, 0], algo=ConvAlgo.MaskImplicitGemm)
                  (conv_h): SubMConv3d(32, 32, kernel_size=[1, 1, 13], stride=[1, 1, 1], padding=[0, 0, 6], dilation=[1, 1, 1], output_padding=[0, 0, 0], algo=ConvAlgo.MaskImplicitGemm)
                  (conv_w): SubMConv3d(32, 32, kernel_size=[1, 13, 1], stride=[1, 1, 1], padding=[0, 6, 0], dilation=[1, 1, 1], output_padding=[0, 0, 0], algo=ConvAlgo.MaskImplicitGemm)
                  (bn2): BatchNorm1d(128, eps=0.001, momentum=0.01, affine=True, track_running_stats=True)
                  (fc1): Linear(in_features=128, out_features=256, bias=True)
                  (act): ReLU()
                  (fc2): Linear(in_features=256, out_features=128, bias=True)
                )
              )
            )
            (1): SFLayer(
              (self_norm_layers): ModuleList(
                (0): BatchNorm1d(128, eps=0.001, momentum=0.01, affine=True, track_running_stats=True)
                (1): BatchNorm1d(128, eps=0.001, momentum=0.01, affine=True, track_running_stats=True)
              )
              (self_attn_layers): ModuleList(
                (0): SelfAttnLayer(
                  (qkv): Linear(in_features=128, out_features=384, bias=False)
                  (proj): Linear(in_features=128, out_features=128, bias=True)
                )
                (1): SelfAttnLayer(
                  (qkv): Linear(in_features=128, out_features=384, bias=False)
                  (proj): Linear(in_features=128, out_features=128, bias=True)
                )
              )
              (ffn_layers): ModuleList(
                (0): CWI_FFN_Layer_3D(
                  (bn): BatchNorm1d(128, eps=0.001, momentum=0.01, affine=True, track_running_stats=True)
                  (conv_k): SubMConv3d(32, 32, kernel_size=[3, 3, 3], stride=[1, 1, 1], padding=[1, 1, 1], dilation=[1, 1, 1], output_padding=[0, 0, 0], algo=ConvAlgo.MaskImplicitGemm)
                  (conv_h): SubMConv3d(32, 32, kernel_size=[1, 1, 13], stride=[1, 1, 1], padding=[0, 0, 6], dilation=[1, 1, 1], output_padding=[0, 0, 0], algo=ConvAlgo.MaskImplicitGemm)
                  (conv_w): SubMConv3d(32, 32, kernel_size=[1, 13, 1], stride=[1, 1, 1], padding=[0, 6, 0], dilation=[1, 1, 1], output_padding=[0, 0, 0], algo=ConvAlgo.MaskImplicitGemm)
                  (bn2): BatchNorm1d(128, eps=0.001, momentum=0.01, affine=True, track_running_stats=True)
                  (fc1): Linear(in_features=128, out_features=256, bias=True)
                  (act): ReLU()
                  (fc2): Linear(in_features=256, out_features=128, bias=True)
                )
                (1): CWI_FFN_Layer_3D(
                  (bn): BatchNorm1d(128, eps=0.001, momentum=0.01, affine=True, track_running_stats=True)
                  (conv_k): SubMConv3d(32, 32, kernel_size=[3, 3, 3], stride=[1, 1, 1], padding=[1, 1, 1], dilation=[1, 1, 1], output_padding=[0, 0, 0], algo=ConvAlgo.MaskImplicitGemm)
                  (conv_h): SubMConv3d(32, 32, kernel_size=[1, 1, 13], stride=[1, 1, 1], padding=[0, 0, 6], dilation=[1, 1, 1], output_padding=[0, 0, 0], algo=ConvAlgo.MaskImplicitGemm)
                  (conv_w): SubMConv3d(32, 32, kernel_size=[1, 13, 1], stride=[1, 1, 1], padding=[0, 6, 0], dilation=[1, 1, 1], output_padding=[0, 0, 0], algo=ConvAlgo.MaskImplicitGemm)
                  (bn2): BatchNorm1d(128, eps=0.001, momentum=0.01, affine=True, track_running_stats=True)
                  (fc1): Linear(in_features=128, out_features=256, bias=True)
                  (act): ReLU()
                  (fc2): Linear(in_features=256, out_features=128, bias=True)
                )
              )
            )
          )
        )
        (1): BatchNorm1d(128, eps=0.001, momentum=0.01, affine=True, track_running_stats=True)
        (2): SparseConv3d(128, 128, kernel_size=[3, 3, 3], stride=[2, 2, 2], padding=[1, 1, 1], dilation=[1, 1, 1], output_padding=[0, 0, 0], bias=False, algo=ConvAlgo.MaskImplicitGemm)
      )
      (stage2): SparseSequential(
        (0): SlotFormer(
          (sla_layers): ModuleList(
            (0): SFLayer(
              (self_norm_layers): ModuleList(
                (0): BatchNorm1d(128, eps=0.001, momentum=0.01, affine=True, track_running_stats=True)
                (1): BatchNorm1d(128, eps=0.001, momentum=0.01, affine=True, track_running_stats=True)
              )
              (self_attn_layers): ModuleList(
                (0): SelfAttnLayer(
                  (qkv): Linear(in_features=128, out_features=384, bias=False)
                  (proj): Linear(in_features=128, out_features=128, bias=True)
                )
                (1): SelfAttnLayer(
                  (qkv): Linear(in_features=128, out_features=384, bias=False)
                  (proj): Linear(in_features=128, out_features=128, bias=True)
                )
              )
              (ffn_layers): ModuleList(
                (0): CWI_FFN_Layer_3D(
                  (bn): BatchNorm1d(128, eps=0.001, momentum=0.01, affine=True, track_running_stats=True)
                  (conv_k): SubMConv3d(32, 32, kernel_size=[3, 3, 3], stride=[1, 1, 1], padding=[1, 1, 1], dilation=[1, 1, 1], output_padding=[0, 0, 0], algo=ConvAlgo.MaskImplicitGemm)
                  (conv_h): SubMConv3d(32, 32, kernel_size=[1, 1, 13], stride=[1, 1, 1], padding=[0, 0, 6], dilation=[1, 1, 1], output_padding=[0, 0, 0], algo=ConvAlgo.MaskImplicitGemm)
                  (conv_w): SubMConv3d(32, 32, kernel_size=[1, 13, 1], stride=[1, 1, 1], padding=[0, 6, 0], dilation=[1, 1, 1], output_padding=[0, 0, 0], algo=ConvAlgo.MaskImplicitGemm)
                  (bn2): BatchNorm1d(128, eps=0.001, momentum=0.01, affine=True, track_running_stats=True)
                  (fc1): Linear(in_features=128, out_features=256, bias=True)
                  (act): ReLU()
                  (fc2): Linear(in_features=256, out_features=128, bias=True)
                )
                (1): CWI_FFN_Layer_3D(
                  (bn): BatchNorm1d(128, eps=0.001, momentum=0.01, affine=True, track_running_stats=True)
                  (conv_k): SubMConv3d(32, 32, kernel_size=[3, 3, 3], stride=[1, 1, 1], padding=[1, 1, 1], dilation=[1, 1, 1], output_padding=[0, 0, 0], algo=ConvAlgo.MaskImplicitGemm)
                  (conv_h): SubMConv3d(32, 32, kernel_size=[1, 1, 13], stride=[1, 1, 1], padding=[0, 0, 6], dilation=[1, 1, 1], output_padding=[0, 0, 0], algo=ConvAlgo.MaskImplicitGemm)
                  (conv_w): SubMConv3d(32, 32, kernel_size=[1, 13, 1], stride=[1, 1, 1], padding=[0, 6, 0], dilation=[1, 1, 1], output_padding=[0, 0, 0], algo=ConvAlgo.MaskImplicitGemm)
                  (bn2): BatchNorm1d(128, eps=0.001, momentum=0.01, affine=True, track_running_stats=True)
                  (fc1): Linear(in_features=128, out_features=256, bias=True)
                  (act): ReLU()
                  (fc2): Linear(in_features=256, out_features=128, bias=True)
                )
              )
            )
            (1): SFLayer(
              (self_norm_layers): ModuleList(
                (0): BatchNorm1d(128, eps=0.001, momentum=0.01, affine=True, track_running_stats=True)
                (1): BatchNorm1d(128, eps=0.001, momentum=0.01, affine=True, track_running_stats=True)
              )
              (self_attn_layers): ModuleList(
                (0): SelfAttnLayer(
                  (qkv): Linear(in_features=128, out_features=384, bias=False)
                  (proj): Linear(in_features=128, out_features=128, bias=True)
                )
                (1): SelfAttnLayer(
                  (qkv): Linear(in_features=128, out_features=384, bias=False)
                  (proj): Linear(in_features=128, out_features=128, bias=True)
                )
              )
              (ffn_layers): ModuleList(
                (0): CWI_FFN_Layer_3D(
                  (bn): BatchNorm1d(128, eps=0.001, momentum=0.01, affine=True, track_running_stats=True)
                  (conv_k): SubMConv3d(32, 32, kernel_size=[3, 3, 3], stride=[1, 1, 1], padding=[1, 1, 1], dilation=[1, 1, 1], output_padding=[0, 0, 0], algo=ConvAlgo.MaskImplicitGemm)
                  (conv_h): SubMConv3d(32, 32, kernel_size=[1, 1, 13], stride=[1, 1, 1], padding=[0, 0, 6], dilation=[1, 1, 1], output_padding=[0, 0, 0], algo=ConvAlgo.MaskImplicitGemm)
                  (conv_w): SubMConv3d(32, 32, kernel_size=[1, 13, 1], stride=[1, 1, 1], padding=[0, 6, 0], dilation=[1, 1, 1], output_padding=[0, 0, 0], algo=ConvAlgo.MaskImplicitGemm)
                  (bn2): BatchNorm1d(128, eps=0.001, momentum=0.01, affine=True, track_running_stats=True)
                  (fc1): Linear(in_features=128, out_features=256, bias=True)
                  (act): ReLU()
                  (fc2): Linear(in_features=256, out_features=128, bias=True)
                )
                (1): CWI_FFN_Layer_3D(
                  (bn): BatchNorm1d(128, eps=0.001, momentum=0.01, affine=True, track_running_stats=True)
                  (conv_k): SubMConv3d(32, 32, kernel_size=[3, 3, 3], stride=[1, 1, 1], padding=[1, 1, 1], dilation=[1, 1, 1], output_padding=[0, 0, 0], algo=ConvAlgo.MaskImplicitGemm)
                  (conv_h): SubMConv3d(32, 32, kernel_size=[1, 1, 13], stride=[1, 1, 1], padding=[0, 0, 6], dilation=[1, 1, 1], output_padding=[0, 0, 0], algo=ConvAlgo.MaskImplicitGemm)
                  (conv_w): SubMConv3d(32, 32, kernel_size=[1, 13, 1], stride=[1, 1, 1], padding=[0, 6, 0], dilation=[1, 1, 1], output_padding=[0, 0, 0], algo=ConvAlgo.MaskImplicitGemm)
                  (bn2): BatchNorm1d(128, eps=0.001, momentum=0.01, affine=True, track_running_stats=True)
                  (fc1): Linear(in_features=128, out_features=256, bias=True)
                  (act): ReLU()
                  (fc2): Linear(in_features=256, out_features=128, bias=True)
                )
              )
            )
          )
        )
        (1): BatchNorm1d(128, eps=0.001, momentum=0.01, affine=True, track_running_stats=True)
      )
      (app): AttnPillarPool(
        (query_func): SparseMaxPool3d(kernel_size=[8, 1, 1], stride=[8, 1, 1], padding=[0, 0, 0], dilation=[1, 1, 1], algo=ConvAlgo.MaskImplicitGemm)
        (norm): LayerNorm((128,), eps=1e-05, elementwise_affine=True)
        (self_attn): MultiheadAttention(
          (out_proj): NonDynamicallyQuantizableLinear(in_features=128, out_features=128, bias=True)
        )
        (pos_embedding): Embedding(8, 128)
      )
      (cls_conv): SparseSequential(
        (0): SubMConv2d(128, 128, kernel_size=[3, 3], stride=[1, 1], padding=[1, 1], dilation=[1, 1], output_padding=[0, 0], bias=False, algo=ConvAlgo.MaskImplicitGemm)
        (1): BatchNorm1d(128, eps=0.001, momentum=0.01, affine=True, track_running_stats=True)
        (2): ReLU()
        (3): SubMConv2d(128, 2, kernel_size=[1, 1], stride=[1, 1], padding=[0, 0], dilation=[1, 1], output_padding=[0, 0], algo=ConvAlgo.MaskImplicitGemm)
      )
      (afd_layers): ModuleList(
        (0): SEDLayer(
          (encoder): ModuleList(
            (0): SparseSequential(
              (0): SparseBasicBlock2D(
                (conv1): SubMConv2d(128, 128, kernel_size=[3, 3], stride=[1, 1], padding=[1, 1], dilation=[1, 1], output_padding=[0, 0], bias=False, algo=ConvAlgo.MaskImplicitGemm)
                (bn1): BatchNorm1d(128, eps=0.001, momentum=0.01, affine=True, track_running_stats=True)
                (conv2): SubMConv2d(128, 128, kernel_size=[3, 3], stride=[1, 1], padding=[1, 1], dilation=[1, 1], output_padding=[0, 0], bias=False, algo=ConvAlgo.MaskImplicitGemm)
                (bn2): BatchNorm1d(128, eps=0.001, momentum=0.01, affine=True, track_running_stats=True)
                (relu): ReLU()
              )
              (1): SparseBasicBlock2D(
                (conv1): SubMConv2d(128, 128, kernel_size=[3, 3], stride=[1, 1], padding=[1, 1], dilation=[1, 1], output_padding=[0, 0], bias=False, algo=ConvAlgo.MaskImplicitGemm)
                (bn1): BatchNorm1d(128, eps=0.001, momentum=0.01, affine=True, track_running_stats=True)
                (conv2): SubMConv2d(128, 128, kernel_size=[3, 3], stride=[1, 1], padding=[1, 1], dilation=[1, 1], output_padding=[0, 0], bias=False, algo=ConvAlgo.MaskImplicitGemm)
                (bn2): BatchNorm1d(128, eps=0.001, momentum=0.01, affine=True, track_running_stats=True)
                (relu): ReLU()
              )
              (2): SparseBasicBlock2D(
                (conv1): SubMConv2d(128, 128, kernel_size=[3, 3], stride=[1, 1], padding=[1, 1], dilation=[1, 1], output_padding=[0, 0], bias=False, algo=ConvAlgo.MaskImplicitGemm)
                (bn1): BatchNorm1d(128, eps=0.001, momentum=0.01, affine=True, track_running_stats=True)
                (conv2): SubMConv2d(128, 128, kernel_size=[3, 3], stride=[1, 1], padding=[1, 1], dilation=[1, 1], output_padding=[0, 0], bias=False, algo=ConvAlgo.MaskImplicitGemm)
                (bn2): BatchNorm1d(128, eps=0.001, momentum=0.01, affine=True, track_running_stats=True)
                (relu): ReLU()
              )
              (3): SparseBasicBlock2D(
                (conv1): SubMConv2d(128, 128, kernel_size=[3, 3], stride=[1, 1], padding=[1, 1], dilation=[1, 1], output_padding=[0, 0], bias=False, algo=ConvAlgo.MaskImplicitGemm)
                (bn1): BatchNorm1d(128, eps=0.001, momentum=0.01, affine=True, track_running_stats=True)
                (conv2): SubMConv2d(128, 128, kernel_size=[3, 3], stride=[1, 1], padding=[1, 1], dilation=[1, 1], output_padding=[0, 0], bias=False, algo=ConvAlgo.MaskImplicitGemm)
                (bn2): BatchNorm1d(128, eps=0.001, momentum=0.01, affine=True, track_running_stats=True)
                (relu): ReLU()
              )
              (4): SparseBasicBlock2D(
                (conv1): SubMConv2d(128, 128, kernel_size=[3, 3], stride=[1, 1], padding=[1, 1], dilation=[1, 1], output_padding=[0, 0], bias=False, algo=ConvAlgo.MaskImplicitGemm)
                (bn1): BatchNorm1d(128, eps=0.001, momentum=0.01, affine=True, track_running_stats=True)
                (conv2): SubMConv2d(128, 128, kernel_size=[3, 3], stride=[1, 1], padding=[1, 1], dilation=[1, 1], output_padding=[0, 0], bias=False, algo=ConvAlgo.MaskImplicitGemm)
                (bn2): BatchNorm1d(128, eps=0.001, momentum=0.01, affine=True, track_running_stats=True)
                (relu): ReLU()
              )
              (5): SparseBasicBlock2D(
                (conv1): SubMConv2d(128, 128, kernel_size=[3, 3], stride=[1, 1], padding=[1, 1], dilation=[1, 1], output_padding=[0, 0], bias=False, algo=ConvAlgo.MaskImplicitGemm)
                (bn1): BatchNorm1d(128, eps=0.001, momentum=0.01, affine=True, track_running_stats=True)
                (conv2): SubMConv2d(128, 128, kernel_size=[3, 3], stride=[1, 1], padding=[1, 1], dilation=[1, 1], output_padding=[0, 0], bias=False, algo=ConvAlgo.MaskImplicitGemm)
                (bn2): BatchNorm1d(128, eps=0.001, momentum=0.01, affine=True, track_running_stats=True)
                (relu): ReLU()
              )
              (6): SparseBasicBlock2D(
                (conv1): SubMConv2d(128, 128, kernel_size=[3, 3], stride=[1, 1], padding=[1, 1], dilation=[1, 1], output_padding=[0, 0], bias=False, algo=ConvAlgo.MaskImplicitGemm)
                (bn1): BatchNorm1d(128, eps=0.001, momentum=0.01, affine=True, track_running_stats=True)
                (conv2): SubMConv2d(128, 128, kernel_size=[3, 3], stride=[1, 1], padding=[1, 1], dilation=[1, 1], output_padding=[0, 0], bias=False, algo=ConvAlgo.MaskImplicitGemm)
                (bn2): BatchNorm1d(128, eps=0.001, momentum=0.01, affine=True, track_running_stats=True)
                (relu): ReLU()
              )
              (7): SparseBasicBlock2D(
                (conv1): SubMConv2d(128, 128, kernel_size=[3, 3], stride=[1, 1], padding=[1, 1], dilation=[1, 1], output_padding=[0, 0], bias=False, algo=ConvAlgo.MaskImplicitGemm)
                (bn1): BatchNorm1d(128, eps=0.001, momentum=0.01, affine=True, track_running_stats=True)
                (conv2): SubMConv2d(128, 128, kernel_size=[3, 3], stride=[1, 1], padding=[1, 1], dilation=[1, 1], output_padding=[0, 0], bias=False, algo=ConvAlgo.MaskImplicitGemm)
                (bn2): BatchNorm1d(128, eps=0.001, momentum=0.01, affine=True, track_running_stats=True)
                (relu): ReLU()
              )
            )
            (1): SparseSequential(
              (0): SparseSequential(
                (0): SparseConv2d(128, 128, kernel_size=[3, 3], stride=[2, 2], padding=[1, 1], dilation=[1, 1], output_padding=[0, 0], bias=False, algo=ConvAlgo.MaskImplicitGemm)
                (1): BatchNorm1d(128, eps=0.001, momentum=0.01, affine=True, track_running_stats=True)
                (2): ReLU()
              )
              (1): SparseBasicBlock2D(
                (conv1): SubMConv2d(128, 128, kernel_size=[3, 3], stride=[1, 1], padding=[1, 1], dilation=[1, 1], output_padding=[0, 0], bias=False, algo=ConvAlgo.MaskImplicitGemm)
                (bn1): BatchNorm1d(128, eps=0.001, momentum=0.01, affine=True, track_running_stats=True)
                (conv2): SubMConv2d(128, 128, kernel_size=[3, 3], stride=[1, 1], padding=[1, 1], dilation=[1, 1], output_padding=[0, 0], bias=False, algo=ConvAlgo.MaskImplicitGemm)
                (bn2): BatchNorm1d(128, eps=0.001, momentum=0.01, affine=True, track_running_stats=True)
                (relu): ReLU()
              )
              (2): SparseBasicBlock2D(
                (conv1): SubMConv2d(128, 128, kernel_size=[3, 3], stride=[1, 1], padding=[1, 1], dilation=[1, 1], output_padding=[0, 0], bias=False, algo=ConvAlgo.MaskImplicitGemm)
                (bn1): BatchNorm1d(128, eps=0.001, momentum=0.01, affine=True, track_running_stats=True)
                (conv2): SubMConv2d(128, 128, kernel_size=[3, 3], stride=[1, 1], padding=[1, 1], dilation=[1, 1], output_padding=[0, 0], bias=False, algo=ConvAlgo.MaskImplicitGemm)
                (bn2): BatchNorm1d(128, eps=0.001, momentum=0.01, affine=True, track_running_stats=True)
                (relu): ReLU()
              )
              (3): SparseBasicBlock2D(
                (conv1): SubMConv2d(128, 128, kernel_size=[3, 3], stride=[1, 1], padding=[1, 1], dilation=[1, 1], output_padding=[0, 0], bias=False, algo=ConvAlgo.MaskImplicitGemm)
                (bn1): BatchNorm1d(128, eps=0.001, momentum=0.01, affine=True, track_running_stats=True)
                (conv2): SubMConv2d(128, 128, kernel_size=[3, 3], stride=[1, 1], padding=[1, 1], dilation=[1, 1], output_padding=[0, 0], bias=False, algo=ConvAlgo.MaskImplicitGemm)
                (bn2): BatchNorm1d(128, eps=0.001, momentum=0.01, affine=True, track_running_stats=True)
                (relu): ReLU()
              )
              (4): SparseBasicBlock2D(
                (conv1): SubMConv2d(128, 128, kernel_size=[3, 3], stride=[1, 1], padding=[1, 1], dilation=[1, 1], output_padding=[0, 0], bias=False, algo=ConvAlgo.MaskImplicitGemm)
                (bn1): BatchNorm1d(128, eps=0.001, momentum=0.01, affine=True, track_running_stats=True)
                (conv2): SubMConv2d(128, 128, kernel_size=[3, 3], stride=[1, 1], padding=[1, 1], dilation=[1, 1], output_padding=[0, 0], bias=False, algo=ConvAlgo.MaskImplicitGemm)
                (bn2): BatchNorm1d(128, eps=0.001, momentum=0.01, affine=True, track_running_stats=True)
                (relu): ReLU()
              )
            )
            (2): SparseSequential(
              (0): SparseSequential(
                (0): SparseConv2d(128, 128, kernel_size=[3, 3], stride=[2, 2], padding=[1, 1], dilation=[1, 1], output_padding=[0, 0], bias=False, algo=ConvAlgo.MaskImplicitGemm)
                (1): BatchNorm1d(128, eps=0.001, momentum=0.01, affine=True, track_running_stats=True)
                (2): ReLU()
              )
              (1): SparseBasicBlock2D(
                (conv1): SubMConv2d(128, 128, kernel_size=[3, 3], stride=[1, 1], padding=[1, 1], dilation=[1, 1], output_padding=[0, 0], bias=False, algo=ConvAlgo.MaskImplicitGemm)
                (bn1): BatchNorm1d(128, eps=0.001, momentum=0.01, affine=True, track_running_stats=True)
                (conv2): SubMConv2d(128, 128, kernel_size=[3, 3], stride=[1, 1], padding=[1, 1], dilation=[1, 1], output_padding=[0, 0], bias=False, algo=ConvAlgo.MaskImplicitGemm)
                (bn2): BatchNorm1d(128, eps=0.001, momentum=0.01, affine=True, track_running_stats=True)
                (relu): ReLU()
              )
              (2): SparseBasicBlock2D(
                (conv1): SubMConv2d(128, 128, kernel_size=[3, 3], stride=[1, 1], padding=[1, 1], dilation=[1, 1], output_padding=[0, 0], bias=False, algo=ConvAlgo.MaskImplicitGemm)
                (bn1): BatchNorm1d(128, eps=0.001, momentum=0.01, affine=True, track_running_stats=True)
                (conv2): SubMConv2d(128, 128, kernel_size=[3, 3], stride=[1, 1], padding=[1, 1], dilation=[1, 1], output_padding=[0, 0], bias=False, algo=ConvAlgo.MaskImplicitGemm)
                (bn2): BatchNorm1d(128, eps=0.001, momentum=0.01, affine=True, track_running_stats=True)
                (relu): ReLU()
              )
              (3): SparseBasicBlock2D(
                (conv1): SubMConv2d(128, 128, kernel_size=[3, 3], stride=[1, 1], padding=[1, 1], dilation=[1, 1], output_padding=[0, 0], bias=False, algo=ConvAlgo.MaskImplicitGemm)
                (bn1): BatchNorm1d(128, eps=0.001, momentum=0.01, affine=True, track_running_stats=True)
                (conv2): SubMConv2d(128, 128, kernel_size=[3, 3], stride=[1, 1], padding=[1, 1], dilation=[1, 1], output_padding=[0, 0], bias=False, algo=ConvAlgo.MaskImplicitGemm)
                (bn2): BatchNorm1d(128, eps=0.001, momentum=0.01, affine=True, track_running_stats=True)
                (relu): ReLU()
              )
              (4): SparseBasicBlock2D(
                (conv1): SubMConv2d(128, 128, kernel_size=[3, 3], stride=[1, 1], padding=[1, 1], dilation=[1, 1], output_padding=[0, 0], bias=False, algo=ConvAlgo.MaskImplicitGemm)
                (bn1): BatchNorm1d(128, eps=0.001, momentum=0.01, affine=True, track_running_stats=True)
                (conv2): SubMConv2d(128, 128, kernel_size=[3, 3], stride=[1, 1], padding=[1, 1], dilation=[1, 1], output_padding=[0, 0], bias=False, algo=ConvAlgo.MaskImplicitGemm)
                (bn2): BatchNorm1d(128, eps=0.001, momentum=0.01, affine=True, track_running_stats=True)
                (relu): ReLU()
              )
            )
          )
          (decoder): ModuleList(
            (0): SparseSequential(
              (0): SparseInverseConv2d(128, 128, kernel_size=[3, 3], stride=[1, 1], padding=[0, 0], dilation=[1, 1], output_padding=[0, 0], bias=False, algo=ConvAlgo.MaskImplicitGemm)
              (1): BatchNorm1d(128, eps=0.001, momentum=0.01, affine=True, track_running_stats=True)
              (2): ReLU()
            )
            (1): SparseSequential(
              (0): SparseInverseConv2d(128, 128, kernel_size=[3, 3], stride=[1, 1], padding=[0, 0], dilation=[1, 1], output_padding=[0, 0], bias=False, algo=ConvAlgo.MaskImplicitGemm)
              (1): BatchNorm1d(128, eps=0.001, momentum=0.01, affine=True, track_running_stats=True)
              (2): ReLU()
            )
          )
          (decoder_norm): ModuleList(
            (0): BatchNorm1d(128, eps=0.001, momentum=0.01, affine=True, track_running_stats=True)
            (1): BatchNorm1d(128, eps=0.001, momentum=0.01, affine=True, track_running_stats=True)
          )
        )
      )
      (up_block): SparseSequential(
        (0): SparseConv2d(128, 128, kernel_size=[3, 3], stride=[1, 1], padding=[1, 1], dilation=[1, 1], output_padding=[0, 0], bias=False, algo=ConvAlgo.MaskImplicitGemm)
        (1): BatchNorm1d(128, eps=0.001, momentum=0.01, affine=True, track_running_stats=True)
        (2): ReLU()
      )
      (shared_conv): SparseSequential(
        (0): SubMConv2d(128, 128, kernel_size=[3, 3], stride=[1, 1], padding=[1, 1], dilation=[1, 1], output_padding=[0, 0], bias=False, algo=ConvAlgo.MaskImplicitGemm)
        (1): BatchNorm1d(128, eps=0.001, momentum=0.01, affine=True, track_running_stats=True)
        (2): ReLU()
      )
    )
    (map_to_bev_module): None
    (pfe): None
    (backbone_2d): None
    (dense_head): SparseDynamicHead(
      (heads_list): ModuleList(
        (0): SeparateHead(
          (bbox): Sequential(
            (0): SparseSequential(
              (0): SubMConv2d(128, 128, kernel_size=[3, 3], stride=[1, 1], padding=[1, 1], dilation=[1, 1], output_padding=[0, 0], bias=False, algo=ConvAlgo.MaskImplicitGemm)
              (1): BatchNorm1d(128, eps=0.001, momentum=0.01, affine=True, track_running_stats=True)
              (2): ReLU()
            )
            (1): SubMConv2d(128, 8, kernel_size=[1, 1], stride=[1, 1], padding=[0, 0], dilation=[1, 1], output_padding=[0, 0], algo=ConvAlgo.MaskImplicitGemm)
          )
          (iou): Sequential(
            (0): SparseSequential(
              (0): SubMConv2d(128, 128, kernel_size=[3, 3], stride=[1, 1], padding=[1, 1], dilation=[1, 1], output_padding=[0, 0], bias=False, algo=ConvAlgo.MaskImplicitGemm)
              (1): BatchNorm1d(128, eps=0.001, momentum=0.01, affine=True, track_running_stats=True)
              (2): ReLU()
            )
            (1): SubMConv2d(128, 1, kernel_size=[1, 1], stride=[1, 1], padding=[0, 0], dilation=[1, 1], output_padding=[0, 0], algo=ConvAlgo.MaskImplicitGemm)
          )
          (heatmap): Sequential(
            (0): SparseSequential(
              (0): SubMConv2d(128, 128, kernel_size=[3, 3], stride=[1, 1], padding=[1, 1], dilation=[1, 1], output_padding=[0, 0], bias=False, algo=ConvAlgo.MaskImplicitGemm)
              (1): BatchNorm1d(128, eps=0.001, momentum=0.01, affine=True, track_running_stats=True)
              (2): ReLU()
            )
            (1): SubMConv2d(128, 3, kernel_size=[1, 1], stride=[1, 1], padding=[0, 0], dilation=[1, 1], output_padding=[0, 0], algo=ConvAlgo.MaskImplicitGemm)
          )
        )
      )
      (get_dynamic_masks): DynamicPositiveMask()
      (hm_loss_func): FocalLossSparse()
      (reg_loss_func): RWIoULoss()
…
